…
xPooling2D(pool_size=(2,2))) model.add(layers.Dropout(0.25)) model.add(layers.Conv2D(128,(3,3),activation=&#39;relu&#39;)) model.add(layers.MaxPooling2D(pool_size=(2,2))) model.add(layers.Dropout(0.25)) model.add(layers.Flatten()) model.add(layers.Dense(64,activation=&#39;relu&#39;)) model.add(layers.Dropout(0.5)) model.add(layers.Dense(1,activation=&#39;sigmoid&#39;)) model.summary() . Model: &#34;sequential&#34; _________________________________________________________________ Layer (type) Output Shape Param # ================================================================= conv2d (Conv2D) (None, 222, 222, 32) 896 _________________________________________________________________ conv2d_1 (Conv2D) (None, 220, 220, 128) 36992 _________________________________________________________________ max_pooling2d (MaxPooling2D) (None, 110, 110, 128) 0 _________________________________________________________________ dropout (Dropout) (None, 110, 110, 128) 0 _________________________________________________________________ conv2d_2 (Conv2D) (None, 108, 108, 64) 73792 _________________________________________________________________ max_pooling2d_1 (MaxPooling2 (None, 54, 54, 64) 0 _________________________________________________________________ dropout_1 (Dropout) (None, 54, 54, 64) 0 _________________________________________________________________ conv2d_3 (Conv2D) (None, 52, 52, 128) 73856 _________________________________________________________________ max_pooling2d_2 (MaxPooling2 (None, 26, 26, 128) 0 _________________________________________________________________ dropout_2 (Dropout) (None, 26, 26, 128) 0 _________________________________________________________________ flatten (Flatten) (None, 86528) 0 _________________________________________________________________ dense (Dense) (None, 64) 5537856 _________________________________________________________________ dropout_3 (Dropout) (None, 64) 0 _________________________________________________________________ dense_1 (Dense) (None, 1) 65 ================================================================= Total params: 5,723,457 Trainable params: 5,723,457 Non-trainable params: 0 _________________________________________________________________ . Compilaci&#243;n . from tensorflow.keras import optimizers model.compile(loss=&#39;binary_crossentropy&#39;, optimizer=&#39;adam&#39;, #SGD metrics=[&#39;acc&#39;, &#39;Precision&#39;, &#39
…
#39;, include_top=False, input_shape=(224, 224, 3)) conv_base.summary() . Downloading data from https://storage.googleapis.com/tensorflow/keras-applications/vgg16/vgg16_weights_tf_dim_ordering_tf_kernels_notop.h5 58892288/58889256 [==============================] - 1s 0us/step Model: &#34;vgg16&#34; _________________________________________________________________ Layer (type) Output Shape Param # ================================================================= input_1 (InputLayer) [(None, 224, 224, 3)] 0 _________________________________________________________________ block1_conv1 (Conv2D) (None, 224, 224, 64) 1792 _________________________________________________________________ block1_conv2 (Conv2D) (None, 224, 224, 64) 36928 _________________________________________________________________ block1_pool (MaxPooling2D) (None, 112, 112, 64) 0 _________________________________________________________________ block2_conv1 (Conv2D) (None, 112, 112, 128) 73856 _________________________________________________________________ block2_conv2 (Conv2D) (None, 112, 112, 128) 147584 _________________________________________________________________ block2_pool (MaxPooling2D) (None, 56, 56, 128) 0 _________________________________________________________________ block3_conv1 (Conv2D) (None, 56, 56, 256) 295168 _________________________________________________________________ block3_conv2 (Conv2D) (None, 56, 56, 256) 590080 _________________________________________________________________ block3_conv3 (Conv2D) (None, 56, 56, 256) 590080 _________________________________________________________________ block3_pool (MaxPooling2D) (None, 28, 28, 256) 0 _________________________________________________________________ block4_conv1 (Conv2D) (None, 28, 28, 512) 1180160 _________________________________________________________________ block4_conv2 (Conv2D) (None, 28, 28, 512) 2359808 _________________________________________________________________ block4_conv3 (Conv2D) (None, 28, 28, 512) 2359808 _________________________________________________________________ block4_pool (MaxPooling2D) (None, 14, 14, 512) 0 _________________________________________________________________ block5_conv1 (Conv2D) (None, 14, 14, 512) 2359808 _________________________________________________________________ block5_conv2 (Conv2D) (None, 14, 14, 512) 2359808 _________________________________________________________________ block5_conv3 (Conv2D) (None, 14, 14, 512) 2359808 _________________________________________________________________ block5_pool (MaxPooling2D) (None, 7, 7, 512) 0 ================================================================= Total params: 14,714,688 Trainable params: 14,714,688 Non-trainable params: 0 _________________________________________________________________ . Congelamos y descongelamos ciertas capas (Fine-tuning) . for layer in conv_base.layers: if layer.name[:6] == &#39;block5&#39;: layer.trainable = True else: layer.trainable = False conv_base.summary() . Model: &#34;vgg16&#34; _________________________________________________________________ Layer (type) Output Shape Param # ================================================================= input_1 (InputLayer) [(None, 224, 224, 3)] 0 _________________________________________________________________ block1_conv1 (Conv2D) (None, 224, 224, 64) 1792 _________________________________________________________________ block1_conv2 (Conv2D) (None, 224, 224, 64) 36928 _________________________________________________________________ block1_pool (MaxPooling2D) (None, 112, 112, 64) 0 _________________________________________________________________ block2_conv1 (Conv2D) (None, 112, 112, 128) 73856 _________________________________________________________________ block2_conv2 (Conv2D) (None, 112, 112, 128) 147584 _________________________________________________________________ block2_pool (MaxPooling2D) (None, 56, 56, 128) 0 _________________________________________________________________ block3_conv1 (Conv2D) (None, 56, 56, 256) 295168 _________________________________________________________________ block3_conv2 (Conv2D) (None, 56, 56, 256) 590080 _________________________________________________________________ block3_conv3 (Conv2D) (None, 56, 56, 256) 590080 _________________________________________________________________ block3_pool (MaxPooling2D) (None, 28, 28, 256) 0 _________________________________________________________________ block4_conv1 (Conv2D) (None, 28, 28, 512) 1180160 _________________________________________________________________ block4_conv2 (Conv2D) (None, 28, 28, 512) 2359808 _________________________________________________________________ block4_conv3 (Conv2D) (None, 28, 28, 512) 2359808 _________________________________________________________________ block4_pool (MaxPooling2D) (None, 14, 14, 512) 0 _________________________________________________________________ block5_conv1 (Conv2D) (None, 14, 14, 512) 2359808 _________________________________________________________________ block5_conv2 (Conv2D) (None, 14, 14, 512) 2359808 _________________________________________________________________ block5_conv3 (Conv2D) (None, 14, 14, 512) 2359808 _________________________________________________________________ block5_pool (MaxPooling2D) (None, 7, 7, 512) 0 ================================================================= Total params: 14,714,688 Trainable params: 7,079,424 Non-trainable params: 7,635,264 _________________________________________________________________ . Definici&#243;n de la arquitectura (incluyendo el m&#243;dulo de transfer learning) . from tensorflow.keras import layers from tensorflow.keras import models model = models.Sequential() model.add(conv_base) model.add(layers.MaxPooling2D((2, 2))) model.add(layers.BatchNormalization()) model.add(layers.Flatten()) model.add(layers.Dense(1, activation=&#39;sigmoid&#39;)) model.summary() . Model: &#34;sequential&#34; _________________________________________________________________ Layer (type) Output Shape Param # ================================================================= vgg16 (Functional) (None, 7, 7, 512) 14714688 _________________________________________________________________ max_pooling2d (MaxPooling2D) (None, 3, 3, 512) 0 _________________________________________________________________ batch_normalization (BatchNo (None, 3, 3, 512) 2048 _________________________________________________________________ flatten (Flatten) (None, 4608) 0 _________________________________________________________________ dense (Dense) (None, 1) 4609 ================================================================= Total params: 14,721,345 Trainable params: 7,085,057 Non-trainable params: 7,636,288 _________________________________________________________________ . Compilaci&#243;n . from tensorflow.keras import optimizers model.compile(loss=&#39;binary_crossentropy&#39;, optimizer=optimizers.RMSprop(lr=1e-4), metrics=[&#39;acc&#39;, &#39;Pre
…
axPooling2D((2, 2))) model.add(layers.Conv2D(128, (3, 3), activation=&#39;relu&#39;)) model.add(layers.MaxPooling2D((2, 2))) model.add(layers.Conv2D(128, (3, 3), activation=&#39;relu&#39;)) model.add(layers.MaxPooling2D((2, 2))) model.add(layers.Flatten()) model.add(layers.Dense(512, activation=&#39;relu&#39;)) model.add(layers.Dense(1, activation=&#39;sigmoid&#39;)) . model.summary() . Model: &#34;sequential&#34; _________________________________________________________________ Layer (type) Output Shape Param # ================================================================= conv2d (Conv2D) (None, 148, 148, 32) 896 _________________________________________________________________ max_pooling2d (MaxPooling2D) (None, 74, 74, 32) 0 _________________________________________________________________ conv2d_1 (Conv2D) (None, 72, 72, 64) 18496 _________________________________________________________________ max_pooling2d_1 (MaxPooling2 (None, 36, 36, 64) 0 _________________________________________________________________ conv2d_2 (Conv2D) (None, 34, 34, 128) 73856 _________________________________________________________________ max_pooling2d_2 (MaxPooling2 (None, 17, 17, 128) 0 _________________________________________________________________ conv2d_3 (Conv2D) (None, 15, 15, 128) 147584 _________________________________________________________________ max_pooling2d_3 (MaxPooling2 (None, 7, 7, 128) 0 _________________________________________________________________ flatten (Flatten) (None, 6272) 0 _________________________________________________________________ dense (Dense) (None, 512) 3211776 _________________________________________________________________ dense_1 (Dense) (None, 1) 513 ================================================================= Total params: 3,453,121 Trainable params: 3,453,121 Non-trainable params: 0 _________________________________________________________________ . Compilaci&#243;n . from keras import optimizers model.compile(loss=&#39;binary_crossentropy&#39;, optimizer=optimizers.RMSprop(lr=1e-4), metrics=[&#39;acc&#39;]) # acc -&gt; accuracy . Prep
…
s import VGG16 conv_base = VGG16(weights=&#39;imagenet&#39;, include_top=False, input_shape=(150, 150, 3)) . conv_base.summary() . for layer in conv_base.layers: if layer.name[:6] == &#39;block5&#39;: layer.trainable = True else: layer.trainable = False . conv_base.summary() . Model: &#34;vgg16&#34; _________________________________________________________________ Layer (type) Output Shape Param # ================================================================= input_1 (InputLayer) [(None, 150, 150, 3)] 0 _________________________________________________________________ block1_conv1 (Conv2D) (None, 150, 150, 64) 1792 _________________________________________________________________ block1_conv2 (Conv2D) (None, 150, 150, 64) 36928 _________________________________________________________________ block1_pool (MaxPooling2D) (None, 75, 75, 64) 0 _________________________________________________________________ block2_conv1 (Conv2D) (None, 75, 75, 128) 73856 _________________________________________________________________ block2_conv2 (Conv2D) (None, 75, 75, 128) 147584 _________________________________________________________________ block2_pool (MaxPooling2D) (None, 37, 37, 128) 0 _________________________________________________________________ block3_conv1 (Conv2D) (None, 37, 37, 256) 295168 _________________________________________________________________ block3_conv2 (Conv2D) (None, 37, 37, 256) 590080 _________________________________________________________________ block3_conv3 (Conv2D) (None, 37, 37, 256) 590080 _________________________________________________________________ block3_pool (MaxPooling2D) (None, 18, 18, 256) 0 _________________________________________________________________ block4_conv1 (Conv2D) (None, 18, 18, 512) 1180160 _________________________________________________________________ block4_conv2 (Conv2D) (None, 18, 18, 512) 2359808 _________________________________________________________________ block4_conv3 (Conv2D) (None, 18, 18, 512) 2359808 _________________________________________________________________ block4_pool (MaxPooling2D) (None, 9, 9, 512) 0 _________________________________________________________________ block5_conv1 (Conv2D) (None, 9, 9, 512) 2359808 _________________________________________________________________ block5_conv2 (Conv2D) (None, 9, 9, 512) 2359808 _________________________________________________________________ block5_conv3 (Conv2D) (None, 9, 9, 512) 2359808 _________________________________________________________________ block5_pool (MaxPooling2D) (None, 4, 4, 512) 0 ================================================================= Total params: 14,714,688 Trainable params: 7,079,424 Non-trainable params: 7,635,264 _________________________________________________________________ . Definimos la arquitectura basada en transfer learning . model = models.Sequential() model.add(conv_base) model.add(layers.Flatten()) model.add(layers.Dense(256, activation=&#39;rel
…
,” arXiv (2016), https://arxiv.org/abs/1610.02391. . . from keras.applications.vgg16 import VGG16 K.clear_session() # Observen como están cargando la arquitectura completa, incluyendo la capa final de clasificación. model = VGG16(weights=&#39;imagenet&#39;) . model.summary() . Model: &#34;vgg16&#34; _________________________________________________________________ Layer (type) Output Shape Param # ================================================================= input_1 (InputLayer) [(None, 224, 224, 3)] 0 _________________________________________________________________ block1_conv1 (Conv2D) (None, 224, 224, 64) 1792 _________________________________________________________________ block1_conv2 (Conv2D) (None, 224, 224, 64) 36928 _________________________________________________________________ block1_pool (MaxPooling2D) (None, 112, 112, 64) 0 _________________________________________________________________ block2_conv1 (Conv2D) (None, 112, 112, 128) 73856 _________________________________________________________________ block2_conv2 (Conv2D) (None, 112, 112, 128) 147584 _________________________________________________________________ block2_pool (MaxPooling2D) (None, 56, 56, 128) 0 _________________________________________________________________ block3_conv1 (Conv2D) (None, 56, 56, 256) 295168 _________________________________________________________________ block3_conv2 (Conv2D) (None, 56, 56, 256) 590080 _________________________________________________________________ block3_conv3 (Conv2D) (None, 56, 56, 256) 590080 _________________________________________________________________ block3_pool (MaxPooling2D) (None, 28, 28, 256) 0 _________________________________________________________________ block4_conv1 (Conv2D) (None, 28, 28, 512) 1180160 _________________________________________________________________ block4_conv2 (Conv2D) (None, 28, 28, 512) 2359808 _________________________________________________________________ block4_conv3 (Conv2D) (None, 28, 28, 512) 2359808 _________________________________________________________________ block4_pool (MaxPooling2D) (None, 14, 14, 512) 0 _________________________________________________________________ block5_conv1 (Conv2D) (None, 14, 14, 512) 2359808 _________________________________________________________________ block5_conv2 (Conv2D) (None, 14, 14, 512) 2359808 _________________________________________________________________ block5_conv3 (Conv2D) (None, 14, 14, 512) 2359808 _________________________________________________________________ block5_pool (MaxPooling2D) (None, 7, 7, 512) 0 _________________________________________________________________ flatten (Flatten) (None, 25088) 0 _________________________________________________________________ fc1 (Dense) (None, 4096) 102764544 _________________________________________________________________ fc2 (Dense) (None, 4096) 16781312 _________________________________________________________________ predictions (Dense) (None, 1000) 4097000 ================================================================= Total params: 138,357,544 Trainable params: 138,357,544 Non-trainable params: 0 _________________________________________________________________ . from keras.preprocessing import image from keras.applications.vgg16 import preprocess_input, decode_predictions import numpy as np # Ruta donde se encuentra almacenada la imagen img_pat
…
